notebooks/example.onnx (onnx, 14472 bytes, 3 tensors)

sequential/main_input/MatMul/ReadVariableOp:0 f4 [100, 32]
0.14104664 0.046564586 -0.15493867 -0.0035920334 -0.11952733 -0.043694124 -0.15153857 -0.0333245
-0.024648543 0.029770497 0.12061973 -0.110922486 0.013264786 0.19605665 -0.20944256 0.13671264
-0.22285797 -0.20802055 -0.21137673 -0.03595543 0.123544924 -0.06127778 0.03825745 -0.09174544
0.15532902 0.12122203 0.017794326 -0.055107523 0.058969162 -0.04455881 0.03395167 0.020052524
-0.16145658 -0.20677902 0.11204942 -0.16919024 -0.10346124 -0.121471375 -0.12266045 0.098826915
-0.08431732 0.062695704 0.16822036 -0.033199936 -0.07005918 0.039679613 -0.016516026 -0.18952934
-0.10077743 0.0012423182 -0.054757673 -0.018798906 0.1581721 0.058981687 0.09184565 0.13687347
0.15628715 -0.08110874 0.053147223 -0.09307603 0.12620102 0.14005567 -0.13524671 -0.11018948
-0.16749662 -0.14115413 -0.20186134 0.10695216 -0.114754006 0.08474459 -0.058840383 0.12246378
-0.12575859 -0.20898262 0.13572429 -0.18250625 -0.020717682 0.119794786 0.16790445 -0.21613054
-0.03878062 -0.07958126 -0.11430703 0.19576901 -0.04136231 -0.13302012 0.10239568 0.07732008
0.22073554 -0.10116602 0.21833506 -0.114139885 0.06801621 0.09306268 -0.05292227 -0.09152227
-0.18447855 0.15446799 0.026714679 0.02885138 0.0057886364 -0.15184802 0.059841353 -0.16894013
0.083382785 0.17834596 0.11769603 0.03869247 -0.098892845 -0.16443545 0.19174694 -0.13446149
0.07331411 -0.21935232 0.17334224 0.18990692 -0.031925675 -0.15716982 0.12438474 -0.11560834
-0.13937464 0.022799872 -0.08405195 -0.057549447 -0.07646646 0.0069344547 0.06751819 0.009744352
-0.07994138 0.043862384 -0.1383122 -0.07397137 -0.17135002 0.1457758 -0.10567027 0.04713085
0.07079466 -0.13085678 0.028105842 -0.08799475 -0.19670188 -0.0467204 0.03026689 -0.25517693
-0.0628657 -0.10414085 -0.09881345 0.040703367 -0.17946286 -0.0471656 0.08215263 -0.009122953
-0.20781259 0.10259495 -0.19222203 -0.10272942 0.1875154 -0.20926256 -0.16285823 0.03664339
0.15581027 -0.055899262 0.08391486 -0.23296636 0.0030795794 -0.026028875 0.04042222 -0.12216074
0.16823159 -0.0063105393 -0.04984857 -0.1670468 -0.088319466 0.19029094 0.02031058 -0.04285606
-0.23911034 -0.174088 0.21890932 0.07101025 0.15773644 0.068622984 -0.107109845 -0.1164318
-0.12973714 0.19681954 -0.11456988 -0.081506476 -0.0012641028 -0.008866712 0.15817377 0.12477309
-0.17147511 -0.2450111 0.0037348252 0.14675082 0.18324153 -0.085332505 0.02589996 0.0576711
0.0666788 0.00990175 -0.01718651 0.09981317 -0.030462055 0.1854772 0.047288522 -0.14571328
-0.11446497 -0.19544426 0.15221624 0.036191273 -0.08562203 0.10717993 0.04789514 -0.04133602
0.08356883 -0.028178677 0.041308403 -0.015474297 0.029666658 -0.083696134 -0.03091484 -0.10315756
-0.18101345 0.053473108 0.075614 -0.08148818 -0.066235036 -0.08248819 0.0014319709 -0.07890732
-0.045973726 -0.20156954 -0.013084338 -0.06903285 -0.09397448 0.0924234 -0.096445106 0.12712857
-0.022692762 -0.176886 -0.20717362 -0.18166591 0.22099032 0.048349816 -0.15945476 0.13769357
-0.15778331 0.13806157 0.0028857714 -0.0043588113 -0.13457602 -0.037878238 0.12460304 0.1529271
00000000: 886e 103e 82ba 3e3d 3ea8 1ebe 5268 6bbb
00000010: bfca f4bd 9cf8 32bd ed2c 1bbe 457f 08bd
00000020: beeb c9bc 42e1 f33c 7a07 f73d 542b e3bd
00000030: 8c54 593c 13c3 483e 1c78 56be 66fe 0b3e
00000040: e134 64be 5703 55be 2473 58be 0046 13bd
00000050: 1f05 fd3d 69fe 7abd d8b3 1c3d 09e5 bbbd
00000060: 920e 1f3e 4143 f83d 68c5 913c 6db8 61bd
00000070: a689 713d 4c83 36bd e810 0b3d 3145 a43c
00000080: e054 25be e1bd 53be 2b7a e53d 3540 2dbe
00000090: 7de3 d3bd fcc5 f8bd 6735 fbbd c465 ca3d
000000a0: 8fae acbd 9b66 803d f541 2c3e a8fc 07bd
000000b0: 307b 8fbd 1787 223d 9e4c 87bc fb13 42be
000000c0: 6664 cebd 48d5 a23a 9549 60bd 2a00 9abc
000000d0: def7 213e c896 713d 9219 bc3d 8f28 0c3e
000000e0: bd09 203e 571c a6bd e7b0 593d a59e bebd
000000f0: d73a 013e c16a 0f3e 1d7e 0abe 06ab e1bd
00000100: 3c84 2bbe b58a 10be bdb4 4ebe bc09 db3d
00000110: 2604 ebbd 928e ad3d 9d02 71bd 4ace fa3d
00000120: dcc6 00be 8aff 55be 4ffb 0a3e ebe2 3abe
00000130: 21b8 a9bc f856 f53d 25ef 2b3e 5351 5dbe
00000140: 6dd8 1ebd 80fb a2bd ce19 eabd ac77 483e
00000150: 876b 29bd 6d36 08be d4b4 d13d fd59 9e3d
00000160: 7f08 623e 2130 cfbd 3a93 5f3e 2cc2 e9bd
00000170: 154c 8b3d a597 be3d 06c5 58bd 0770 bbbd
00000180: f2e7 3cbe db2c 1e3e bed8 da3c bb59 ec3c
00000190: 9aae bd3b 0c7e 1bbe 351c 753d a4fe 2cbe
000001a0: 98c4 aa3d 53a0 363e 9e0a f13d ff7b 1e3d
000001b0: 5588 cabd c461 28be 4f59 443e 46b0 09be
000001c0: b525 963d e59d 60be a180 313e f676 423e
000001d0: 7fc4 02bd 20f1 20be 6dbd fe3d 11c4 ecbd
000001e0: 3ab8 0ebe ccc6 ba3c 6e23 acbd f8b8 6bbd
000001f0: 739a 9cbd 6c3a e33b fa46 8a3d c6a6 1f3c
00000200: 4eb8 a3bd 0ba9 333d b7a1 0dbe 4d7e 97bd
00000210: 6176 2fbe 4046 153e a869 d8bd 470c 413d
00000220: cafc 903d 52ff 05be 393e e63c 9736 b4bd
00000230: 386c 49be e45d 3fbd 45f2 f73c 8da6 82be
00000240: bbbf 80bd cc47 d5bd b55e cabd 93b8 263d
00000250: 1dc5 37be b730 41bd a33f a83d 7078 15bc
00000260: d3cc 54be 4d1d d23d dad5 44be cd63 d2bd
00000270: 0904 403e ed48 56be 4fc4 26be 6117 163d
00000280: ba8c 1f3e a0f6 64bd 8edb ab3d bc8e 6ebe
00000290: c5d2 493b 823a d5bc c591 253d 692f fabd
000002a0: e744 2c3e a4c8 cebb 042e 4cbd 510e 2bbe
000002b0: d6e0 b4bd a1db 423e 6062 a63c d689 2fbd
000002c0: 57d9 74be 2044 32be c429 603e d26d 913d
000002d0: a985 213e 358a 8c3d 685c dbbd cc73 eebd
000002e0: d0d9 04be 108b 493e 9da3 eabd deec a6bd
000002f0: 40b0 a5ba b045 11bc 4ef8 213e 0989 ff3d
00000300: 2c97 2fbe 31e4 7abe f8c3 743b d945 163e
00000310: aba3 3b3e cfc2 aebd 272c d43c 8838 6c3d
00000320: e58e 883d f33a 223c b9ca 8cbc d96a cc3d
00000330: 8f8b f9bc bced 3d3e 9cb1 413d dd35 15be
00000340: 9c6c eabd 8a22 48be 93de 1b3e 4d3d 143d
00000350: 9a5a afbd 2781 db3d b22d 443d f54f 29bd
00000360: 2226 ab3d f8d6 e6bc 0033 293d e887 7dbc
00000370: 7e07 f33c e168 abbd 1e41 fdbc 4544 d3bd
00000380: 975b 39be 9e06 5b3d 83db 9a3d 46e3 a6bd
00000390: 3ca6 87bd 91ef a8bd f8b0 bb3a 299a a1bd
000003a0: f24e 3cbd 3f68 4ebe b15f 56bc 1861 8dbd
000003b0: b175 c0bd 7b48 bd3d 0385 c5bd fe2d 023e
000003c0: 2ce6 b9bc 9b21 35be 5225 54be a106 3abe
000003d0: 494b 623e 750a 463d 1c48 23be 8bff 0c3e
000003e0: f391 21be 0360 0d3e 361f 3d3b 5cd4 8ebb
000003f0: 4cce 09be 3626 1bbd e12f ff3d ec98 1c3e

sequential/main_input/BiasAdd/ReadVariableOp:0 f4 [32]
0.0 -0.009171859 0.008546791 -0.008327394 -0.006664961 -0.0011694105 0.0015062185 -0.0093005225
-0.014818428 -0.0023249001 -0.00971016 0.012210414 -0.027145823 0.0056225867 -0.0019005502 0.0014310074
-0.0052786223 -0.011098223 -0.0126669295 -0.0018005257 0.014263213 0.005647816 -0.006195561 -0.002863239
-0.0061279945 0.014903851 -0.006638591 -0.020616135 0.006140846 -0.0036420678 -0.0061054947 -0.0063630575
00000000: 0000 0000 9145 16bc d707 0c3c 9f6f 08bc
00000010: bf65 dabb e846 99ba 4e6c c53a 3861 18bc
00000020: fec8 72bc 5a5d 18bb 5d17 1fbc 300e 483c
00000030: eb60 debc ad3d b83b e21b f9ba a490 bb3a
00000040: 4bf8 acbb 52d5 35bc f488 4fbc 9eff ebba
00000050: 40b0 693c 5111 b93b 2204 cbbb 2ea5 3bbb
00000060: 58cd c8bb 482f 743c 8a88 d9bb 2be3 a8bc
00000070: 2639 c93b c2af 6ebb 9a10 c8bb 3281 d0bb

sequential/dense_1/MatMul/ReadVariableOp:0 f4 [32, 1]
-0.10241392 -0.10856189 0.18898474 -0.27087533 -0.2325053 -0.406329 -0.24105756 -0.17965579
-0.11710913 0.13541436 -0.13595125 0.29787785 0.30330247 0.22050592 0.25813085 -0.33290482
-0.15624763 -0.37355587 0.2691582 -0.12116355 0.102799624 0.3368336 0.2797688 0.15531899
-0.094118424 0.3828911 -0.0464192 -0.43660492 -0.20999436 -0.076006494 -0.29698884 -0.3812267
00000000: 64be d1bd b255 debd 3785 413e 2cb0 8abe
00000010: df15 6ebe 5b0a d0be cbd7 76be b0f7 37be
00000020: e9d6 efbd 10aa 0a3e ce36 0bbe 7283 983e
00000030: 764a 9b3e 4ecc 613e ba29 843e 8072 aabe
00000040: 61ff 1fbe b742 bfbe 1bcf 893e 9824 f8bd
00000050: 9c88 d23d 7475 ac3e db3d 8f3e f10b 1f3e
00000060: 29c1 c0bd 4d0a c43e 0f22 3ebd ae8a dfbe
00000070: c308 57be 4ba9 9bbd ec0e 98be 2530 c3be
