notebooks/example.onnx (onnx, 14472 bytes, 3 tensors)

sequential/main_input/MatMul/ReadVariableOp:0 f4 [100, 32]
-0.22386234 -0.13186845 0.07039395 -0.20858616 -0.103793 0.06814763 0.04965552 -0.21542008
0.18563247 0.14540616 0.0013042788 0.13716267 -0.17162867 0.16686147 -0.16638587 -0.038901225
-0.01373199 -0.10330236 -0.051568296 0.011888509 -0.22367582 -0.1238181 0.15762095 -0.13976072
0.22496529 0.02258552 0.17448427 0.08068819 -0.05263561 0.014269011 -0.072056785 0.06674581
-0.16088492 0.18678214 -0.016220698 -0.21573056 -0.104559734 0.12692305 0.06582037 0.19242921
-0.21377872 -0.11352548 -0.14380257 0.04641647 0.03930525 0.06249595 0.2014011 0.08178903
-0.016157907 0.026812436 0.20237286 0.22807936 0.004047539 -0.033785857 -0.025154214 0.13650747
0.21167697 0.12512587 -0.16546232 -0.075339176 0.014583364 0.22235115 0.08117683 -0.11464473
0.17226827 -0.038314905 0.22060294 -0.023672462 -0.19214162 0.14196546 -0.16282037 0.02681182
0.021344975 -0.07990126 -0.106146984 -0.17050025 0.15714397 -0.086209826 0.012573022 -0.14326333
-0.009446972 -0.048918504 0.0884833 -0.19408488 -0.19452088 0.07810122 -0.09002272 0.19691679
-0.16775146 -0.006470287 -0.11299781 -0.073347166 0.18965799 0.02370797 -0.14737839 -0.16348603
0.15225692 0.09891146 0.06630185 -0.20227183 -0.041030448 0.18447879 0.1754728 0.20701708
-0.19833916 0.019704636 0.005972339 0.11023709 0.041160453 -0.09820173 0.09205272 -0.12590453
-0.103409596 -0.067976005 -0.21947414 -0.013917427 -0.03119872 -0.11266428 0.0061103916 -0.13354848
-0.0737873 0.0721671 0.13447902 -0.21181716 -0.02309481 -0.15005915 0.04723379 0.13520287
0.17526808 -0.0021414505 -0.111909956 -0.135099 0.14904256 -0.14889577 0.26383755 -0.197952
0.043904524 -0.08503135 0.12881526 -0.13134941 -0.062974274 -0.09443 -0.040861655 0.1543546
-0.042426676 0.20251356 -0.10951866 0.112383544 0.06442259 -0.18061249 0.0072859637 -0.09098264
0.15060669 -0.06868509 -0.037624754 0.11097479 0.18801159 0.17155086 0.10949714 0.035836846
0.02365413 0.06942849 0.15156668 -0.19831435 0.12891571 0.00915942 0.04499258 0.053270467
-0.11734919 0.17828062 0.17929642 0.16873991 -0.105559714 -0.033707023 -0.054710805 0.06765272
-0.08921523 -0.14094236 -0.19861986 -0.12223927 -0.09603625 0.11636855 -0.046088886 -0.20058799
-0.13037637 0.0119467275 -0.11037744 -0.016959198 -0.02748816 -0.17617744 0.0106510855 -0.122413725
-0.15832025 -0.061774973 0.0738402 0.12323686 -0.15426116 0.15376312 -0.1375273 0.15301374
0.056704856 0.14849098 0.1752733 -0.07100568 -0.12355615 -0.1934605 0.01575696 0.069182105
0.08209714 -0.00013169227 -0.15223587 -0.17735957 0.21124509 0.16599578 0.03141833 0.0075895777
-0.014453075 0.09163458 -0.064842954 -0.13347423 0.08689534 -0.17003125 0.13692309 0.11476184
0.013239025 -0.13863443 -0.10050409 -0.03831131 0.011547729 0.007893305 -0.21239518 0.11333476
-0.18449238 -0.06953758 0.116283655 0.11025904 0.1595412 -0.17900589 0.1803691 -0.04130521
-0.19337305 0.028852442 -0.0504065 0.18895891 0.12384597 0.0029083546 -0.085087195 -0.12681508
0.043019757 0.042849705 0.1495333 0.1558449 -0.020873642 0.1871545 -0.18708776 -0.155921
00000000: 2b3c 65be 8608 07be b42a 903d 9c97 55be
00000010: 6d91 d4bd fc90 8b3d 9663 4b3d 1597 5cbe
00000020: 7016 3e3e 5ae5 143e 56f4 aa3a 5f74 0c3e
00000030: 6dbf 2fbe bcdd 2a3e 0f61 2abe e456 1fbd
00000040: 24fc 60bc 3090 d3bd 4739 53bd 05c8 423c
00000050: 460b 65be 5894 fdbd 6367 213e 6f1d 0fbe
00000060: 4d5d 663e 4505 b93c 01ac 323e da3f a53d
00000070: 7098 57bd 92c8 693c 8292 93bd 07b2 883d
00000080: 04bf 24be d143 3f3e 45e1 84bc 79e8 5cbe
00000090: 6a23 d6bd 1ef8 013e d5cc 863d 2a0c 453e
000000a0: cfe8 5abe 0c80 e8bd fb40 13be 321f 3e3d
000000b0: 8bfe 203d c1fb 7f3d 173c 4e3e 0281 a73d
000000c0: 965d 84bc c1a5 db3c d53a 4f3e a38d 693e
000000d0: 38a1 843b 0a63 0abd 3610 cebc 9dc8 0b3e
000000e0: d9c1 583e ff20 003e f46e 29be 6d4b 9abd
000000f0: 10ef 6e3c 05b0 633e 0a40 a63d dbca eabd
00000100: 1867 303e 17f0 1cbd bde5 613e c0ec c1bc
00000110: c6c0 44be 655f 113e 62ba 26be 76a4 db3c
00000120: a8db ae3c 46a3 a3bd 9763 d9bd 9e97 2ebe
00000130: 59ea 203e c78e b0bd 14ff 4d3c 9fb3 12be
00000140: 79c7 1abc c55e 48bd bb36 b53d 30be 46be
00000150: 7b30 47be 88f3 9f3d d55d b8bd 8ea4 493e
00000160: 0ac7 2bbe b404 d4bb 656b e7bd 0a37 96bd
00000170: b435 423e 3737 c23c 5cea 16be e268 27be
00000180: 3de9 1b3e 1792 ca3d 44c9 873d 5920 4fbe
00000190: 8b0f 28bd 02e8 3c3e 24af 333e 49fc 533e
000001a0: 6c19 4bbe 9e6b a13c 9cb3 c33b fcc3 e13d
000001b0: dd97 283d fd1d c9bd 2386 bc3d 1eed 00be
000001c0: 69c8 d3bd 0137 8bbd d4bd 60be eb05 64bc
000001d0: 7594 ffbc 88bc e6bd ae39 c83b efc0 08be
000001e0: cc1d 97bd 58cc 933d deb4 093e 99e6 58be
000001f0: 5431 bdbc 1ba9 19be 3878 413d 9f72 0a3e
00000200: 7a79 333e 9457 0cbb 0c31 e5bd 6457 0abe
00000210: 9d9e 183e 2278 18be b715 873e eeb3 4abe
00000220: 3bd5 333d eb24 aebd 26e8 033e 7680 06be
00000230: a8f8 80bd 8464 c1bd 8d5e 27bd 220f 1e3e
00000240: 98c7 2dbd b75f 4f3e 524b e0bd 5829 e63d
00000250: feef 833d 7bf2 38be 18bf ee3b 1b55 babd
00000260: a438 1a3e c5aa 8cbd 6a1c 1abd c046 e33d
00000270: 1c86 403e 07ab 2f3e 0940 e03d a8c9 123d
00000280: 4ec6 c13c 8630 8e3d 4c34 1b3e eb12 4bbe
00000290: 7b02 043e 6411 163c 244a 383d 2232 5a3d
000002a0: c654 f0bd 328f 363e 7b99 373e 28ca 2c3e
000002b0: b12f d8bd 6010 0abd 7018 60bd 828d 8a3d
000002c0: 79b6 b6bd 3253 10be 0163 4bbe 9558 fabd
000002d0: a7ae c4bd a252 ee3d b3c7 3cbd f066 4dbe
000002e0: 6281 05be 35bc 433c 910d e2bd 04ee 8abc
000002f0: da2e e1bc dc67 34be e481 2e3c 0cb4 fabd
00000300: b41e 22be c107 7dbd 8839 973d 9b63 fc3d
00000310: a3f6 1dbe 1474 1d3e f5d3 0cbe a2af 1c3e
00000320: 5a43 683d 050e 183e d87a 333e 6d6b 91bd
00000330: 020b fdbd 821a 46be bd14 813c 59af 8d3d
00000340: 8c22 a83d e016 0ab9 b8e3 1bbe bf9d 35be
00000350: a250 583e ccfa 293e 82b0 003d feb1 f83b
00000360: 97cc 6cbc e9aa bb3d 62cc 84bd 78ad 08be
00000370: 2ff6 b13d ac1c 2ebe 9135 0c3e 4108 eb3d
00000380: 7fe8 583c 2ff6 0dbe 17d5 cdbd 52ec 1cbd
00000390: b032 3d3c ec52 013c 1f7e 59be 0e1c e83d
000003a0: 92eb 3cbe b869 8ebd 2026 ee3d 7ecf e13d
000003b0: c55e 233e 524d 37be adb2 383e a72f 29bd
000003c0: 9603 46be f55b ec3c 0c77 4ebd 727e 413e
000003d0: f5a2 fd3d 189a 3e3b 3242 aebd d0db 01be
000003e0: 7c35 303d 2c83 2f3d 421f 193e ce95 1f3e
000003f0: 33ff aabc 6ea5 3f3e ef93 3fbe c1a9 1fbe

sequential/main_input/BiasAdd/ReadVariableOp:0 f4 [32]
-0.014406493 -0.0012674085 -0.0028217137 -0.0074380026 0.0058263987 0.019314425 -0.0027536326 -0.013458585
0.011445242 0.0033426639 0.0045257024 0.002387301 -0.00043330307 -0.0047634635 0.0022769691 -0.001683213
0.005931942 0.0046764123 -0.001607576 -0.006050637 0.00055368687 0.0008372087 0.0007578746 -0.0069932304
0.01181941 -0.011012853 -0.00360669 -0.0063545574 0.010834058 -0.004848673 -0.0061219875 -0.003465607
00000000: 3609 6cbc 2c1f a6ba 80ec 38bb 7dba f3bb
00000010: 60eb be3b 4939 9e3c 4a76 34bb 6681 5cbc
00000020: d384 3b3c 9810 5b3b 584c 943b 4474 1c3b
00000030: f42c e3b9 d416 9cbb 3439 153b 429f dcba
00000040: bc60 c23b 973c 993b 4db5 d2ba 6c44 c6bb
00000050: 4c25 113a 2078 5b3a 1aac 463a 7827 e5bb
00000060: 33a6 413c 416f 34bc 385e 6cbb e439 d0bb
00000070: 5581 313c 9ee1 9ebb f49a c8bb 3d1f 63bb

sequential/dense_1/MatMul/ReadVariableOp:0 f4 [32, 1]
0.20482054 0.07611508 -0.10611375 -0.39941055 -0.3578237 -0.279142 -0.34129018 -0.3041027
-0.28284353 0.040152334 0.06887467 0.22414194 -0.363306 -0.17674702 0.1845605 -0.3334611
0.19298777 -0.23054826 0.15247723 0.20566288 -0.1651907 0.37436897 0.22163516 0.3371189
-0.09385348 -0.2877263 0.38163793 0.30265573 -0.22430213 0.40044445 -0.30283648 0.060689054
00000000: 7abc 513e 39e2 9b3d 2a52 d9bd 8a7f ccbe
00000010: ab34 b7be b3eb 8ebe 96bd aebe 59b3 9bbe
00000020: ded0 90be c676 243d 2a0e 8d3d 7785 653e
00000030: 3e03 babe 2cfd 34be 6dfd 3c3e 6abb aabe
00000040: 969e 453e d814 6cbe fe22 1c3e 4a99 523e
00000050: c027 29be 4aad bf3e 54f4 623e d99a ac3e
00000060: 4136 c0bd dd50 93be 0c66 c33e b1f5 9a3e
00000070: 75af 65be 0e07 cd3e 620d 9bbe 1695 783d
