notebooks/simplified.onnx (onnx, 14539 bytes, 3 tensors)

sequential_1/main_input/MatMul/ReadVariableOp:0 f4 [100, 32]
00000000: e6d2 3b3d 1904 5b3e b7f3 0ebe 2081 17be
00000010: e6c2 f23c f323 3b3e 8c10 04be 9167 37bd
00000020: ff9b 16be 2bb1 35bb f385 29be f979 9dbd
00000030: f466 49be 3298 fe3d 3ddd c0bd 50b7 b2bd
00000040: 2b93 bdbd 8acc 26be 3073 f83d db09 813e
00000050: 588f 94bd f130 0bbe f6e4 02be 1a08 45be
00000060: 680e 35be 8f1b 853d 5fb6 6d3d 9588 143e
00000070: ad5d 45bd d4f6 9abd cd3e e9bd 3f0e 79bd
00000080: dd49 633d 236b 4a3d db88 cfbd 8a4b b03d
00000090: 85d2 99bd a115 543e 4b7f d93d bb46 4fbe
000000a0: b0fa 773c 6740 823b b34c d93d 634a 423d
000000b0: 2f79 013e ec4a a83d 57bb d9bd a4d4 40be
000000c0: 3e35 2f3e 2495 1a3e a297 363e 0fed 5abe
000000d0: 53e9 a33d a0b5 72bc 6142 243c de20 7bbd
000000e0: f223 aebd abac 8dbd 3b26 40be 3a39 c8bd
000000f0: 61f2 47be 1f55 72be 24e5 acbd fb02 2c3c
00000100: 02f0 80bc a50e 5abd 0bf9 ffbd b1d5 03bc
00000110: b426 40be 42fe 9f3d d4a9 03be 41ae 0e3e
00000120: 52ee 493d 0658 71bd 8b7f 393e 865d 84bd
00000130: 4f70 0f3e 4f61 243e 14c9 3e3d d203 fcbd
00000140: b4df c5bd 999a 223e bf64 4d3e ff62 8f3d
00000150: 29b4 383e c322 223e 51ad a7bd 03a4 6a3c
00000160: a86a 353e 349a 803d 67bf a73d 75eb 4cbd
00000170: 5aec d03a ff85 d1bc 8c44 30be 87d8 2dbd
00000180: 1149 013d d5c1 3c3c ca7d 2cbe f98e 8ebd
00000190: 632c 44bd 1bf2 8fbd 1ffa ffbd 66db 973c
000001a0: 9e8b b13d c626 803d 8e1b 02be 2991 013e
000001b0: 98ce 013e 1def 1fbe c66f bbbb c7b4 e33d
000001c0: 8ad7 1cbc e6e9 89bd 59a2 cfbb b64e 13be
000001d0: 3521 64bd cd25 e5bd 9ed4 303e b72b ef3d
000001e0: 2800 c8bc 0c13 35be b62f 10be a8e8 6bbd
000001f0: a4ce a43d 6a4b b0bd 50de 4d3e 258b 683e
00000200: 847c 46be aa78 5dbe 5f5c 86bd 7689 8cbd
00000210: 1a6a 433e cff4 763d 66d3 32be 4963 debd
00000220: bb10 17bd c8cc 0d3e df12 22be 3e86 093d
00000230: 7043 4ebe eb84 223e e6b0 d8bd 5757 c2bd
00000240: 8daa 083e e45f 2dbe 1e76 d03d ab3c f5bc
00000250: aaf6 433e 7b4c 013e 8ee6 1b3e 2c5d 26be
00000260: acc2 2a3d 03ea 22be c171 663e cc13 993d
00000270: d933 0abe 0a32 093d 4cba 2fbe 5c71 10be
00000280: 6e26 323d e3dc 823e 06ea 35be 8dc0 10bd
00000290: 8701 893d e1d4 423e 4d6d debd e117 59bd
000002a0: a2b1 c4bb 9b8f 15bd e798 033d e50f 7d3c
000002b0: 62c8 f8bc 9cae 43be 9ce2 963d 6222 1cbe
000002c0: 4645 cd3d 3dae 2b3e e4ec 5c3e a886 d73d
000002d0: c7c0 2ebd cd79 88bd fe38 35be 36df c23d
000002e0: 9529 d3bd 7cd5 9e3d f8f8 04be 5dea 2ebe
000002f0: 66c0 86bc 7dba 61bc f469 86bd 15c9 ba3d
00000300: e75d a53c 9b2b a1bd 9d84 49be 1c5c 51bd
00000310: d078 41be 5141 8ebd 3199 033d ed8a 293e
00000320: cfcf f33d df82 603e 7712 bb3d a7b9 ddbd
00000330: 1eb6 b1bd 84cb eb3c c53b c8bd 5b52 293c
00000340: 771e 213e 0dc9 35be af77 fe3d afcf 9cbd
00000350: 357b 1c3e bd65 d1bd 908f 30be 6ecc a43c
00000360: c463 093d 194a 8f3c 427f 883b c173 53be
00000370: b830 91bd cbc8 cc3d bcca 14be 2ea5 08be
00000380: 6385 5ebd e0c4 12be 92c4 203e 279a e43d
00000390: 9c39 553e 9ac6 e4bd cbc6 073d eed6 433e
000003a0: 0dc5 8dbd bfbd 1d3d e183 403e 889e 34be
000003b0: 4f6d b0bd 9a30 49be 504f 23bd f414 38bd
000003c0: bc90 9fbd 884e 403e c394 56bd 8779 40be
000003d0: a412 cabd 12c7 c63d 287a a4bd 51e0 223e
000003e0: 81a3 99bc c64d 153e 710a a2bd 6b18 333e
000003f0: a6c0 74bd 0fc4 42be 532a cd3d aa8c 5cbe
0.045855425 0.21388282 -0.13960157 -0.14795351 0.02963395 0.18275432 -0.12896937 -0.044776503
-0.14707945 -0.0027724009 -0.16555004 -0.0768928 -0.1966818 0.12431373 -0.09417198 -0.0872637
-0.09256586 -0.16288963 0.12131345 0.25202832 -0.07253903 -0.13592888 -0.12782654 -0.19241372
-0.17681277 0.06499397 0.05803525 0.14505227 -0.04818504 -0.0756661 -0.113889314 -0.0608046
0.055490363 0.04941858 -0.10133525 0.08608158 -0.075108565 0.20711376 0.10619982 -0.20241825
0.015135452 0.0039749625 0.10610332 0.047434222 0.12643884 0.08217415 -0.10631435 -0.18831116
0.17110154 0.15095955 0.17831281 -0.21379493 0.080034874 -0.014813811 0.010025592 -0.06131064
-0.0850295 -0.069176994 -0.18764584 -0.0977654 -0.19526054 -0.23665284 -0.084421426 0.0104987575
-0.015739445 -0.053236622 -0.12498673 -0.0080465535 -0.18764764 0.07812168 -0.12857753 0.1393366
0.049299546 -0.058921836 0.1811506 -0.06463151 0.14007686 0.16052745 0.04657848 -0.12305416
-0.096618086 0.15879287 0.20057963 0.07001304 0.18037476 0.15833573 -0.08187354 0.01432133
0.17716467 0.06279412 0.08190804 -0.050029237 0.0015939579 -0.02557659 -0.17213649 -0.042442825
0.031563822 0.0115208225 -0.1684486 -0.069608636 -0.047893893 -0.070286 -0.12498879 0.018537235
0.08669208 0.062573954 -0.12705824 0.1265303 0.12676466 -0.15618558 -0.0057201115 0.11118465
-0.009572873 -0.06734066 -0.006336492 -0.14385495 -0.05569573 -0.111888506 0.17268607 0.1167826
-0.024414137 -0.17683047 -0.140807 -0.057594925 0.08047226 -0.08608134 0.20104337 0.2270933
-0.19383436 -0.21628061 -0.06560587 -0.06862156 0.19083443 0.06029206 -0.17463455 -0.10858781
-0.03688119 0.13847649 -0.15827511 0.03357529 -0.20142913 0.15871017 -0.10580616 -0.09489315
0.1334631 -0.1693111 0.10178779 -0.029936155 0.19137064 0.12626831 0.15224668 -0.1624648
0.04168956 -0.15909581 0.22504331 0.07474479 -0.13496341 0.033494987 -0.1716091 -0.14105743
0.04349368 0.25559148 -0.17765054 -0.03533988 0.066897444 0.1902652 -0.10860691 -0.05300129
-0.006002621 -0.036513906 0.03212824 0.015445684 -0.030368987 -0.19109577 0.07367441 -0.15247491
0.100229785 0.16765685 0.21574742 0.105237305 -0.042664316 -0.06663857 -0.17697522 0.0951523
-0.103106655 0.07755563 -0.12985599 -0.1708159 -0.016449165 -0.013777372 -0.06563178 0.091203846
0.020186378 -0.07869645 -0.19679494 -0.051113233 -0.18893743 -0.06946052 0.032128517 0.16556902
0.11904871 0.21924923 0.09134381 -0.10826426 -0.08677314 0.028783567 -0.09777025 0.0103345765
0.15734278 -0.17752476 0.124251716 -0.076568 0.15281375 -0.10224483 -0.17242265 0.02011701
0.03354241 0.017491387 0.004165561 -0.20649625 -0.070893705 0.09999236 -0.14530462 -0.13344261
-0.054326426 -0.14332914 0.15699986 0.11162215 0.20822757 -0.11170693 0.033148568 0.19124958
-0.0692235 0.038511034 0.18800308 -0.176386 -0.08614599 -0.19647446 -0.03987056 -0.044941857
-0.07791278 0.18779957 -0.052387964 -0.18796359 -0.09866837 0.097059384 -0.08031112 0.15905882
-0.018754723 0.1458045 -0.07912148 0.17489783 -0.059754036 -0.19020103 0.10017838 -0.21538034

sequential_1/main_input/BiasAdd/ReadVariableOp:0 f4 [32]
00000000: 41d8 853b f3e6 273c 0004 613a c897 4dbb
00000010: a8a5 803a 21aa 3b3c 2445 31bb 3058 32bb
00000020: b6df 643b 821c bcbb 59c1 2f39 9431 f33a
00000030: fc42 75bc 16c6 f1bb beb1 9dbb becc e13a
00000040: b500 3dba 17b4 01bc f153 bfba fd55 f13b
00000050: a9b8 483b 7791 853c 3c8d c5bc f076 9ebb
00000060: 839c 223c 86ea 233b baaa d63b eff4 a33b
00000070: 51a9 aa3b 3fb7 6d3b 1437 5bba a9e8 653b
0.0040846174 0.010247934 0.0008583665 -0.0031370986 0.0009814994 0.011454136 -0.0027049268 -0.0027213208
0.0034923381 -0.005740703 0.00016761328 0.0018554204 -0.014969584 -0.00737835 -0.0048124483 0.0017227156
-0.0007209883 -0.007916472 -0.001459716 0.007364987 0.0030627644 0.016304715 -0.024115197 -0.004835956
0.009925011 0.0025011613 0.006551114 0.0050035636 0.0052081724 0.0036272553 -0.00083623943 0.0035081303

sequential_1/dense_1/MatMul/ReadVariableOp:0 f4 [32, 1]
00000000: debc 963e 0def d1be f672 cbbd 2055 ce3e
00000010: a733 71be 4d57 f93d 3a86 633e 0240 913e
00000020: 0be6 3d3e 6513 69be 485f b43d 6ffc 8bbe
00000030: d01a a7be 5db6 383e e5a7 febc 8f11 a4be
00000040: 6911 793e e85b 403e 55bf 75be d001 b6bd
00000050: 9540 c83e 0886 b8be 2e85 a63e c678 b83c
00000060: f921 23be 2e46 8b3e 48ba 2fbe 3e46 7f3e
00000070: ab5b 743e f4e9 a23e c4a6 cf3d 5a26 7c3e
0.2944097 -0.41002694 -0.099340364 0.4029932 -0.2355486 0.121748544 0.22219172 0.28369147
0.18544786 -0.22761305 0.08807236 -0.2734103 -0.32637644 0.18038316 -0.031085918 -0.32044646
0.24323048 0.1878506 -0.23998769 -0.088870645 0.39111772 -0.36039758 0.32523483 0.022518527
-0.15930928 0.2720198 -0.17160904 0.24929139 0.23863094 0.31819117 0.1013923 0.24624005
